model/keypoint_classifier/keypoint_classifier.tflite (tflite, 6600 bytes, 6 tensors)

arith.constant f4 [5, 10]
00000000: 5207 083f d98b c23e 69c0 283f b8be 8dbf
00000010: 96bb 2f3f b4ca 18bd e8fe 2f3f 21f9 9c3f
00000020: 52ae eabe b0d1 98bf b2bf 75bf 3df2 803f
00000030: b115 93bf 3a0f 0a3f 0e89 cbbf 5a2b 7bbe
00000040: 7b51 fc3e f721 3f3e c5ce 113e ce1e 9d3e
00000050: 7096 77bf 0089 9ebf 53e7 8e3f 7be3 4a3f
00000060: 763e 603e 6d66 babf 5b86 083f ad61 11bf
00000070: b79c 89bf 5d7a 633f 5152 153f 6132 1f3f
00000080: 9817 27bf 87c6 76bf 731f f8bd 5cf5 893d
00000090: ee96 0cc0 64dd 353c 8c22 2a3f 4a94 50bf
000000a0: d5e7 81bf 53d1 c3bf ca60 0dc0 021b dcbe
000000b0: 77b9 853f be20 a33f c058 d7be d306 87be
000000c0: 7174 86be 53af 943e
0.5313617 0.3799732 0.65918595 -1.1073828 0.6864561 -0.037302688 0.6874833 1.2263528
-0.4583612 -1.1938992 -0.9599563 1.0073925 -1.1490995 0.53929484 -1.5901201 -0.24528256
0.49280915 0.186653 0.14239033 0.30687565 -0.96713924 -1.2385559 1.1164345 0.7925336
0.21898827 -1.4562508 0.5333001 -0.56789666 -1.075095 0.88858587 0.5832873 0.6218625
-0.65270376 -0.9639668 -0.121153735 0.06736252 -2.196712 0.011100147 0.66458964 -0.8147627
-1.0148875 -1.5298256 -2.2090325 -0.42989355 1.0447224 1.2744367 -0.42059898 -0.26372394
-0.26260713 0.29040012

arith.constant1 f4 [10, 20]
00000000: 0cc3 133f aca0 0fbf fda5 ecbd 87f9 98bf
00000010: 3a22 b63c 7090 2c3f 0778 413e 3f1b 343f
00000020: 8f5e d3be 282b 113f 986e f3be dd7d d73d
00000030: 1ff6 bb3f c1b2 dfbe b7ed e83d 8c21 dbbe
00000040: b872 0b3f 4143 85bb 309a ebbd bce7 4f3f
00000050: ecdd 0e3f 30f1 453c 0f75 0f3f 4880 863f
00000060: 91e6 ca3e d0b7 1abe 5b89 f83e a57e 6e3f
00000070: 5aa3 a1be e0a5 813f 6f26 893e a072 f33e
00000080: df26 093f 496d 153f 20df 76be 407e d43e
00000090: 5d31 8c3f b9e7 893d 66ae 343e 7cdc 0ebe
000000a0: f89b 7d3e d9b4 06bf c046 8fbf d7b3 103f
000000b0: 34ca 82be 5252 91bf 1dc4 513e e961 d9be
000000c0: fe7c 8abd d4d5 7dbf 349e 39bf 8d5d 1dbe
000000d0: b1d7 e0be 9601 9fbe aab1 ffbd 1027 df3d
000000e0: af60 99bf 1b8e 11bc d74b aebc 168b c03e
000000f0: 6bca 4bbe b8e5 02bf 9b97 83be f5a3 afbe
00000100: ac7b 9a3f 60dd a0be 0f51 d43d 58a5 403e
00000110: 9a22 a53d c807 5fbe 10ff 96be 3373 a83e
00000120: 0a67 b2bf 1120 523f ffd6 ac3e ec7e 393f
00000130: 82e2 ebbd a3c5 b23e 4232 723f df2f 30be
00000140: 37b5 20bf a03f 92be 9d90 34bd 4ca4 b43d
00000150: 96a2 953d 840c 39bf d668 1e3e a49c 6abd
00000160: 0d74 9f3f 7f5a 1a3e aa11 56bd cc78 253d
00000170: ea0a 873e f363 bcbd 4970 773f 0b35 33be
00000180: 6f3a 9b3e 036b 583c caf5 99bb c18c dcbe
00000190: 3c66 0dbf 4c58 683f 7bcb 333f 6c0f 5d3f
000001a0: c665 043f 0a64 6b3f 00c2 8dbf 65e4 083f
000001b0: 18a7 c43e b4f5 4ebe 207d 46bf e4d8 8dbf
000001c0: d7bf 12bf e72b f43e dd3e c93e face 76bd
000001d0: 6185 99be 1505 be3d da47 79bd bc87 35bf
000001e0: 1035 a43f fb02 b13e a48e 25be efa1 b33f
000001f0: f33d 213f 2e8c 113d 918f 3c3f aef5 2d3f
00000200: ba5f 973f beea f83d ce79 8fbe f17d 9e3f
00000210: 1ea4 7cbd 16d1 b93e 3324 a63f 8bfe 393f
00000220: cc41 2f3d 6db4 8d3f 84da 8a3f e9a5 a53f
00000230: 966e 2dbf d960 4a3f f34c 8b3c abf6 df3e
00000240: f75e 7a3e c6e2 d33e 08d6 1f3f 927e 0f3f
00000250: 33ab b63e cb9a 953d cc16 873f 8017 0b3e
00000260: 4f5e 0a3f 0358 0bbd 7ea4 4cbe 3855 a4bd
00000270: acdf b93d 96ed 193e 7328 353e ba40 e03e
00000280: c0d8 14bf 897f 09be 6320 8d3e f7f6 ce3e
00000290: 3fec 4e3e 0ca0 8b3e 1ded 16be 4520 5bbe
000002a0: b7cf 1e3c 1cfd e43e 5cad 623d 8419 38bf
000002b0: cf0d 2b3f 5876 2c3d db2a 92be 28f7 81be
000002c0: f9db 433e 4ce6 81bf ca88 5a3e e7ab a43c
000002d0: 6293 48be 73c9 e33d bd88 e03e 5cc4 c9be
000002e0: f966 d7be 631b 87be bcaf b33e 89d4 10be
000002f0: 81c9 c63e dce6 bbbc f155 1bbf a7de a8be
00000300: c92a 8bbf 7bd5 5d3f 3ff3 1b3e 3dcd 2a3f
00000310: 7a3f d7bd dcab f3be e98a ce3d d763 d43a
0.5771949 -0.5610454 -0.11555097 -1.195115 0.022233117 0.67407894 0.18893443 0.70354074
-0.4128308 0.56706476 -0.47545314 0.105220534 1.4684485 -0.43691066 0.113734655 -0.42799032
0.5447192 -0.004066855 -0.11504018 0.81212974 0.55807376 0.012081429 0.5603799 1.0507898
0.39629033 -0.15109181 0.48542294 0.93161994 -0.3156994 1.0128746 0.26787135 0.4754839
0.5357494 0.5836988 -0.24108553 0.4150257 1.0952564 0.06733651 0.17644653 -0.13951296
0.24766529 -0.526197 -1.1193466 0.56524414 -0.25544894 -1.1353247 0.20484968 -0.42457512
-0.067621216 -0.991544 -0.72507024 -0.15367718 -0.4391456 -0.31055897 -0.124850586 0.108961225
-1.198263 -0.008883978 -0.021276398 0.37606114 -0.19901435 -0.51131773 -0.25701603 -0.34304777
1.2068992 -0.31418896 0.10367023 0.18813074 0.0806324 -0.21780312 -0.29491472 0.3290039
-1.3937695 0.8208018 0.3375778 0.7245929 -0.11517812 0.3491641 0.9460794 -0.17205761
-0.6277651 -0.28564167 -0.044083226 0.088204 0.073064014 -0.7228472 0.15469679 -0.05727829
1.2457291 0.15073584 -0.05226294 0.040398404 0.26375514 -0.09198751 0.9665571 -0.17500703
0.3031802 0.013209107 -0.00469849 -0.43076137 -0.5523412 0.9075973 0.7023236 0.86351657
0.51717794 0.9194952 -1.1074829 0.534735 0.38408732 -0.20210916 -0.77534676 -1.1081815
-0.57323974 0.47689745 0.39305773 -0.060255982 -0.29984573 0.09278313 -0.06085954 -0.7091024
1.2828693 0.34572586 -0.16167694 1.4033793 0.6298515 0.035534076 0.73656565 0.67953
1.1826088 0.121541485 -0.28022617 1.2382184 -0.06167995 0.36292332 1.2979797 0.72654027
0.04278736 1.1070687 1.0847936 1.2941257 -0.67746866 0.7905403 0.017004466 0.4374288
0.24450289 0.41383952 0.6243596 0.56052506 0.3567749 0.07304915 1.0553832 0.13583183
0.54050153 -0.03401948 -0.19984624 -0.08024067 0.09075865 0.15032038 0.17691211 0.43799382
-0.58143234 -0.13427557 0.27563772 0.40422794 0.20207308 0.27270544 -0.14738889 -0.21399029
0.009693078 0.44724357 0.05534111 -0.71913934 0.66817945 0.04210505 -0.2854832 -0.25383878
0.19126882 -1.0148406 0.21341243 0.0201015 -0.19587472 0.11122408 0.43854323 -0.39407623
-0.4207075 -0.26388082 0.35095012 -0.14143576 0.3882561 -0.02293723 -0.6067801 -0.3298237
-1.0872432 0.8665387 0.1522951 0.6671942 -0.10510154 -0.47592056 0.10085089 0.0016204071

arith.constant2 f4 [5]
00000000: 65ed 71be 73fe 81bc 5956 103f 9d7a 323d
00000010: e88d 0bbf
-0.23625715 -0.015868401 0.56381756 0.043573964 -0.54513407

arith.constant3 f4 [10]
00000000: 8846 f33d d713 483e 2dbf 313f 0e4f 413f
00000010: 33c7 903e 3e91 6d3e d8d2 8c3e 2187 14bf
00000020: 8bd3 fa3e b188 233f
0.11878687 0.19538818 0.69432336 0.7551125 0.28276977 0.23199937 0.2750461 -0.5801869
0.4898952 0.6388045

sequential_1_1/dense_3_1/BiasAdd/ReadVariableOp f4 [20]
00000000: 763c 70be ba4c dcbe bf82 5fbf a282 edbe
00000010: d713 71bf 052e e3be f2ae af3d 9d64 1cbf
00000020: 4412 f8be ce63 59bf 659d 19bf 3c2c 6ebf
00000030: fa31 eabe 2d54 3dbf 8c8e 8ebe 16a8 40bf
00000040: 2d8d 1bbf 0ba3 653e 37a8 09bf 5273 a1be
-0.23460564 -0.43027288 -0.8730888 -0.46388727 -0.941709 -0.44371048 0.0857829 -0.61091024
-0.48451436 -0.84917915 -0.6000579 -0.93036246 -0.45741254 -0.7395657 -0.2784313 -0.7525648
-0.6076229 0.22425477 -0.537723 -0.31533295

sequential_1_1/dense_3_1/MatMul f4 [20, 42]
00000000: c037 9f3b da7e 82bd 02e2 ea3e 44b8 3c3f
00000010: 51d6 c83e 82a2 2c3e 5ebf b83e f0c2 6cbe
00000020: 258a a33e 0d66 efbe bce8 a6bd 164a 353e
00000030: 4496 313d 36d6 a73d 5e72 d83d 7179 7cbc
00000040: 1939 a63d c467 28be 2706 f5bd 73bb a73d
00000050: a451 513c 6470 f3bd da67 81be 1786 0b3c
00000060: 5b9a 28bf 0b67 bd3e ee3e 91bc 7039 a4bd
00000070: 8006 fe3c 256b f7bd 545b d1be f94b 963e
00000080: e9db 31bf 1790 0e3f ba5e 813e ea01 7bbe
00000090: 876d f93d 6644 25bb 2eb9 9ebd 736e 9d3e
000000a0: 02f6 35bf a11b ec3e 040e 31be fbd4 95be
000000b0: 5317 dfbd bece ce3e f1b6 f1bd 19f9 c9bd
000000c0: 8611 b5be d018 c5be 3e0c 93bf 38d9 19be
000000d0: 1277 86be 42e4 843e 5295 be3d 88d9 a23d
000000e0: 6f4c 5a3e fda5 78bd a27c 613e c1e4 e13b
000000f0: c8d9 afbe f507 763e 52eb 523b d595 5fbc
00000100: 3d43 713e 6dc2 5ebe 4b78 813e 0a5c 36be
00000110: bb9f cebe 87a6 7e3e 46b0 4c3d 4fe8 26bc
00000120: c643 fc3e 4bda 5f3d 2993 183f b7cc c93d
00000130: 230d 82be c2f7 3b3e 5a85 003c 460e 97bd
00000140: 53da 6b3e 9c61 953d ed19 ca3e 2f5c 533e
00000150: eb3b 9dbe 60f0 08bd a96a b7be a137 e6be
00000160: 16d2 16be a5a4 9fbe 51c5 83be 92d1 59be
00000170: 8b20 cfbe 8734 5ebe 5ed3 66bd cabc 8cbd
00000180: 18e6 2d3d 2e53 06bb fe3c cb3d ec7b 143e
00000190: 9a64 f93d f10c 673d 3c7f 25be 460c 38bd
000001a0: a9cd c33d 8681 a1bd 24cd e13d dbf1 49be
000001b0: fbda cdbc 4dbb d2bd f9e7 2abe d41d 09bd
000001c0: b206 313e c8a1 f1bd 6de3 a93d 1549 d4bd
000001d0: 66b4 26be f030 9dbd 4819 b8bd d575 bebc
000001e0: e750 503d bc0f 30be 292b bf3b 268a 0ebe
000001f0: c805 4abe d55c a6bd c8e7 52bd c0b9 06bc
00000200: d5f8 873c 0a28 d5bd 9707 513d e66c 33be
00000210: 0aec b13d c63c e1be ac31 173d 1da7 02bf
00000220: 33ba 70bd 3f66 16bd f305 36bd 2d34 00bd
00000230: b17d 2fbd 054e a1bb 26bf fbbc a1eb 223c
00000240: 01a5 8ebd 5f8a e7bc 5862 3cbc 322e 2ebe
00000250: 4157 8dbd 364d e0bb 0abc aabc d16b 743e
00000260: ab94 a1bc f3d5 88bd 003e 013d 2bd9 21be
00000270: bc90 153c 987f 453e 0e99 81bd 5b36 833f
00000280: b1f8 efbc a2e7 e8bd d8db 953d c1f2 98bd
00000290: bfb0 963d a9c7 933e 4df4 05bd 83cb 743f
000002a0: b40c fc3d 427a 37be 88c5 523f 4744 eebe
000002b0: 88b3 133f a142 2ebf a9ad c13e 8a09 bcbe
000002c0: 7d21 ab3d d910 ebbe cf85 e23e fd83 453e
000002d0: 7c6a cbbc 1be4 833d 9b44 a8be b3b5 7b3e
000002e0: 5848 cdbe 232d 433e 4205 7c3e d5e2 f3bc
000002f0: a71f 313e adcd 2dbe f13c 38be 0386 043e
00000300: d8fb 4cbe 5532 3a3e 5d48 913e 085b dbbd
00000310: ff2e 913e c770 64be 954d edbd 6603 083e
00000320: 3f27 eabd 2166 583d 8826 113f b3b7 04bf
00000330: e7d5 b23e 91c4 d8be f9f6 e63d edb8 70bd
00000340: 7d86 363d a215 aa3d 70b1 ba3d 5c8c 993e
00000350: f85f 893d 3e2e 8d3e b857 a43d 88f0 253e
00000360: 43a5 e93c 6acc fe3d 4bba 10bd 50ef 303e
00000370: 079e 0d3e 26a9 763c 22d9 963c f808 373c
00000380: a3b6 11bd edea 4b3d 346a 56bd 29ba 113d
00000390: b791 d83d 8bbe 493c 00b9 963d 24f1 af3d
000003a0: 6fb9 d4bb 9555 1a3c d9a1 4b3d 817c a4bf
000003b0: e0e1 d03d 08b1 793b 7b9a 133d 6f42 a63d
000003c0: 9c1a 123d 9688 0bbe 845b 50be 4b58 3ebe
000003d0: 5352 9f3a 8008 203d ad9e 18bd 0112 a73d
000003e0: 7760 7fbc 7094 59bd 320d 863e 03d7 8dbe
000003f0: d09a 693e 25fb 72be 5d71 0a3f 2aa2 793f
0.004858941 -0.06371851 0.45875555 0.7371867 0.3922601 0.16858867 0.36083502 -0.23121238
0.31941333 -0.46757546 -0.08149859 0.17704043 0.043356195 0.08195154 0.10568689 -0.015409813
0.08116359 -0.16445833 -0.11964064 0.0819005 0.012775812 -0.11886671 -0.25274545 0.008515856
-0.6586053 0.36992678 -0.017730203 -0.08018768 0.031008959 -0.12080983 -0.4088999 0.29354838
-0.6947618 0.55688614 0.25267583 -0.24512449 0.12179094 -0.002521777 -0.07750164 0.3074833
-0.71078503 0.4611483 -0.17290503 -0.29264054 -0.108931206 0.40392107 -0.118024714 -0.09861965
-0.35364932 -0.38495493 -1.1488111 -0.15024269 -0.26262718 0.25955397 0.09305824 0.07951647
0.2131822 -0.060705174 0.220202 0.0068937247 -0.3434584 0.24026473 0.003218372 -0.013646563
0.23560806 -0.21753855 0.2528709 -0.17808548 -0.4035624 0.24868213 0.049972795 -0.010187223
0.49270457 0.05465154 0.5959955 0.098534994 -0.25400648 0.18356231 0.0078442935 -0.07375769
0.23032503 0.07294008 0.39472905 0.20640634 -0.30709776 -0.033432364 -0.35823563 -0.44964316
-0.14728579 -0.311803 -0.25736478 -0.21271351 -0.40454516 -0.21699725 -0.05635392 -0.06871946
0.042455763 -0.0020496356 0.09923743 0.14500397 0.12177391 0.056408826 -0.16161817 -0.04493358
0.09560711 -0.07886033 0.110254556 -0.19721167 -0.025128832 -0.10289631 -0.16690053 -0.033475712
0.1728771 -0.117984354 0.08295331 -0.10365502 -0.16279754 -0.0767535 -0.08989197 -0.023249546
0.050858404 -0.17193502 0.0058340025 -0.13919887 -0.19728768 -0.08123175 -0.051490575 -0.008222997
0.016598145 -0.104080275 0.05103263 -0.1752201 0.08687599 -0.4399168 0.036912605 -0.51036245
-0.058771323 -0.036718603 -0.044439267 -0.03129976 -0.042844478 -0.0049226307 -0.030730795 0.009943874
-0.06965066 -0.028264223 -0.011498056 -0.1700981 -0.06901408 -0.0068451418 -0.020841617 0.23869254
-0.01972421 -0.066814326 0.03155327 -0.158055 0.009128746 0.19286954 -0.06328021 1.0250963
-0.02929339 -0.113723055 0.073173225 -0.07468177 0.073579304 0.28863266 -0.032703687 0.95623034
0.123071104 -0.17917731 0.8233266 -0.46536466 0.5769582 -0.6807042 0.37827805 -0.36726028
0.08355997 -0.4591129 0.44242713 0.19288631 -0.02483105 0.06439992 -0.32864842 0.24581032
-0.40094256 0.19060187 0.2461138 -0.029771248 0.1729723 -0.1697299 -0.17991997 0.12941746
-0.20017946 0.18183263 0.2837552 -0.10710722 0.28356168 -0.22308646 -0.11587063 0.13282546
-0.11433267 0.052831773 0.5669942 -0.518428 0.3492882 -0.42337468 0.11277575 -0.05877011
0.04456185 0.083049074 0.09115875 0.29989898 0.06707758 0.27574342 0.080245435 0.16205037
0.028521186 0.12441333 -0.035333913 0.1727879 0.13829814 0.015054977 0.018414084 0.011171572
-0.035574567 0.04978459 -0.052347377 0.035577927 0.10574668 0.012313495 0.07359505 0.08590916
-0.006491832 0.009419818 0.049714897 -1.2850496 0.10199332 0.0038099904 0.036035996 0.0811814
0.035669908 -0.13626322 -0.2034741 -0.18588369 0.0012155272 0.039070606 -0.0372607 0.08157731
-0.015586964 -0.053120077 0.26181942 -0.27703103 0.22812963 -0.23728617 0.5407923 0.9751307
